outputs/models/knapsack50-ppo.pt (torch, 28198 bytes, 8 tensors)

input_proj.weight f4 [16, 201]
000000 d1 85 9e ae dd 68 ff b5 04 12 2a 2e e5 b8 e4 b2
       -7.208779e-11 -1.90295e-06 3.8669526e-11 -2.6626774e-08
000010 80 40 65 2c be 4b 83 b1 77 ee 5d 36 cb b4 a4 2b
       3.2578662e-12 -3.8212127e-09 3.307037e-06 1.1703081e-12
000020 12 49 00 ac 57 e3 da ad 0e 39 04 29 ff 6a a0 ad
       -1.8230456e-12 -2.488469e-11 2.9359375e-14 -1.823741e-11
000030 51 40 1a 2f 78 54 e7 2d 26 dc 08 29 f5 fb 16 30
       1.4029068e-10 2.6299171e-11 3.0389015e-14 5.4927735e-10
000040 1f b5 75 ab c0 c3 70 31 1d 9c b0 a8 11 bd 2e 2e
       -8.729284e-13 3.5035868e-09 -1.9607629e-14 3.9730944e-11
000050 2f 0d 77 b1 00 c6 6e ab fd f4 55 ab de ec 3d a9
       -3.5950725e-09 -8.4829366e-13 -7.601279e-13 -4.217188e-14
000060 ca 98 f2 b5 c9 a3 ef 31 1f 30 c6 29 54 dd 4b 33
       -1.8074873e-06 6.9744357e-09 8.801314e-14 4.7465917e-08
000070 a9 9b 03 35 11 e7 18 2a b5 a8 91 b2 6a a4 9f a9
       4.902782e-07 1.3580479e-13 -1.695694e-08 -7.08954e-14
000080 15 40 09 ab 8b 98 c8 ab 47 3b 9d 32 31 de 6a aa
       -4.876111e-13 -1.4253194e-12 1.8304162e-08 -2.0860463e-13
000090 5f 16 bb b5 54 66 ba 2d b4 5d 0b 31 d2 69 87 28
       -1.3939097e-06 2.1191195e-11 2.0280426e-09 1.5033903e-14
0000a0 f2 c6 74 29 06 40 e7 b0 ac 11 6d 2d a2 02 15 2f
       5.435144e-14 -1.6825659e-09 1.3475814e-11 1.3552406e-10
0000b0 e2 4e e4 a8 4a 78 ec af 7c f6 4b b4 0c ea 37 b6
       -2.5347295e-14 -4.301362e-10 -1.8995519e-07 -2.7405358e-06
0000c0 2b aa ae 2e b5 4e 6e 29 27 ad c0 2a 58 e0 d8 af
       7.942832e-11 5.2914883e-14 3.42262e-13 -3.9449577e-10
0000d0 d6 24 19 31 d9 24 fc b3 80 95 ca 28 37 f4 86 a9
       2.228537e-09 -1.1741367e-07 2.249134e-14 -5.99316e-14
0000e0 f2 5a e0 a8 06 68 b3 a9 7b 80 b6 b3 1e de 1b 29
       -2.4908437e-14 -7.967242e-14 -8.498406e-08 3.460957e-14
0000f0 0b 9d 02 ae c2 f2 3c 2b 9c b8 72 ac b4 4c bb 2b
       -2.969806e-11 6.712791e-13 -3.4492747e-12 1.3308439e-12
000100 0c c6 81 ae 83 05 a2 b2 9b 0c 2c 32 b4 d8 5a 33
       -5.901421e-11 -1.8861789e-08 1.0014584e-08 5.095417e-08
000110 19 ac 2c 34 fd 85 33 ae 85 6b 20 b2 0e 39 f1 30
       1.6081357e-07 -4.0818893e-11 -9.337673e-09 1.7551274e-09
000120 69 26 99 b2 ca da 04 b5 08 9c 2a aa 2e 84 1c ae
       -1.7829011e-08 -4.949221e-07 -1.5153167e-13 -3.5587693e-11
000130 71 ed 36 34 03 6d 9a aa 04 95 73 30 22 5c c3 30
       1.7036452e-07 -2.7431537e-13 8.861465e-10 1.4214303e-09
000140 3e 00 4b aa 1e f3 03 37 44 76 51 aa 70 30 90 29
       -1.8030106e-13 7.864814e-06 -1.860396e-13 6.403287e-14
000150 09 e5 64 31 4b da c1 2b 4e 33 3b a9 94 2c df 33
       3.3308558e-09 1.3774063e-12 -4.156684e-14 1.03923554e-07
000160 74 0b 9a 35 7a d0 9d aa 9c ce 8e b4 35 59 e6 34
       1.1477227e-06 -2.8033462e-13 -2.659989e-07 4.2905745e-07
000170 98 44 bf 37 b2 6a d4 a8 0e 42 d5 b2 16 fd 9d 28
       2.2800916e-05 -2.3583e-14 -2.4826502e-08 1.754026e-14
000180 31 90 84 b0 b5 e6 ad 36 52 f0 b4 ac c1 cc 69 a9
       -9.645246e-10 5.1826596e-06 -5.1425886e-12 -5.191399e-14
000190 0e 4b 9c ab a2 ad cd 2b 09 9d c4 2c 89 a5 9f ad
       -1.1105299e-12 1.4614319e-12 5.5880895e-12 -1.814972e-11
0001a0 2b be 33 30 df 80 6c 36 22 cb 39 28 04 1b 14 a8
       6.5390066e-10 3.5241753e-06 1.031361e-14 -8.2215085e-15
0001b0 88 d2 b9 2f 2d c2 1a ab 48 9a 0a a9 31 3f aa b1
       3.3800895e-10 -5.4981264e-13 -3.0775973e-14 -4.954835e-09
0001c0 9d b7 c8 37 31 bb 60 32 b4 50 d5 33 e4 5c c0 32
       2.392736e-05 1.3081078e-08 9.933265e-08 2.2393984e-08
0001d0 de 8f 8d 35 cb ab df 33 8f d3 0f 2d 75 13 cd a8
       1.054719e-06 1.0415496e-07 8.175584e-12 -2.276801e-14
0001e0 cd 90 67 33 ad 8b 76 a9 a8 28 bf ac da 1d ca ac
       5.3915574e-08 -5.4744122e-14 -5.4330603e-12 -5.7444995e-12
0001f0 92 a7 07 ae 25 5e 0c ab fd f7 b0 37 68 55 18 b0
       -3.084428e-11 -4.9868643e-13 2.1096314e-05 -5.541865e-10
000200 73 15 31 30 d6 f3 ab aa a2 13 c4 b3 9d ec 63 aa
       6.4422706e-10 -3.0544897e-13 -9.1305324e-08 -2.0243742e-13
000210 73 4e 84 31 a7 82 0e aa 15 fe 60 31 41 d5 14 2d
       3.8506243e-09 -1.2657463e-13 3.274072e-09 8.460178e-12
000220 88 f6 c2 ad da 73 ef ac 23 b4 61 2d 0c 24 b8 2b
       -2.2164728e-11 -6.8056507e-12 1.2829768e-11 1.3083991e-12
000230 70 73 92 2b bd 2c 93 2f 86 33 ba b4 0e e0 fe 30
       1.0405964e-12 2.6770933e-10 -3.4682688e-07 1.8544613e-09
000240 63 bb 0e 2f 95 27 42 36 de 44 4f 2a b8 4e 56 33
       1.2981398e-10 2.8931292e-06 1.8409186e-13 4.9897352e-08
000250 9e e1 d4 ae 98 0a 14 32 ef 9d a9 2b 33 d0 c4 37
       -9.6807215e-11 8.6171426e-09 1.2052008e-12 2.3461971e-05
000260 84 9f bf b1 2d 6f c9 a9 41 f5 d6 b6 4b 9a 1b 35
       -5.5769664e-09 -8.945479e-14 -6.4062483e-06 5.7966525e-07
000270 86 da 5d 2b 71 3b aa 31 33 68 73 ac 41 1f 21 2c
       7.8818234e-13 4.954409e-09 -3.459022e-12 2.2896825e-12
000280 44 26 11 30 7f 0e 4a 30 2f ac 07 a7 75 04 a0 2a
       5.280507e-10 7.350777e-10 -1.8828354e-15 2.8424802e-13
000290 27 b5 8a 27 2e 25 e6 33 44 9c 7c ab 5b ba 0c ad
       3.84991e-15 1.07169726e-07 -8.9745247e-13 -7.999458e-12
0002a0 92 e3 ab 2f 56 c4 0a b4 11 a9 e4 ad 2f 6b 88 33
       3.1266417e-10 -1.2923678e-07 -2.599568e-11 6.35249e-08
0002b0 25 24 1a b1 d5 0a 82 aa 99 52 8e b0 d1 35 9c b1
       -2.2430495e-09 -2.3100155e-13 -1.0355335e-09 -4.5463158e-09
0002c0 17 25 a5 a9 d2 2d 10 ad 75 a1 cf b0 bf 72 c3 31
       -7.333906e-14 -8.1956265e-12 -1.5107121e-09 5.688292e-09
0002d0 92 b0 91 ab 8c bc a4 2a c8 65 34 2b 40 66 a0 b0
       -1.0351878e-12 2.9263083e-13 6.4090096e-13 -1.1670593e-09
0002e0 44 0e 83 36 ff ce a1 29 fa 13 25 ad be 89 ab b3
       3.905765e-06 7.1857444e-14 -9.3836e-12 -7.987863e-08
0002f0 6b 35 83 26 08 b0 b7 af 16 97 3e 29 02 9a ab 30
       9.10443e-16 -3.3412584e-10 4.231952e-14 1.2485659e-09
000300 42 cf fe b0 72 da 37 2b 56 b5 52 37 45 e5 67 af
       -1.8539839e-09 6.5317814e-13 1.2559196e-05 -2.109078e-10
000310 9b a7 a8 b7 8f a4 cd a9 2e 00 eb 29 d8 11 cb 33
       -2.0105208e-05 -9.132375e-14 1.04361276e-13 9.45617e-08
000320 7f 1f be b4 5e 8b 9c a8 6b 66 05 30 92 ae e9 30
       -3.5413174e-07 -1.737992e-14 4.8530663e-10 1.7002597e-09
000330 ab dc 1a 35 1a c9 55 b2 bf d6 fe b1 2a d8 64 32
       5.7690585e-07 -1.2443957e-08 -7.4167867e-09 1.3320497e-08
000340 45 ff 02 b3 78 81 cd b7 40 fb 8a 29 07 23 33 af
       -3.050015e-08 -2.4498193e-05 6.172016e-14 -1.62924e-10
000350 ec e2 3b 37 95 84 8e aa 16 0a 90 b7 02 49 87 36
       1.1198903e-05 -2.5316264e-13 -1.7170834e-05 4.0318128e-06
000360 ad e0 6f 2f 8b 54 3a 30 80 fa 1e 32 31 c8 17 b2
       2.1816744e-10 6.778655e-10 9.2537675e-09 -8.834875e-09
000370 42 d9 88 ae 14 99 c7 a7 9c fe e0 ad bf ce 4a ac
       -6.223157e-11 -5.5399563e-15 -2.5578921e-11 -2.8820694e-12
000380 3c e2 13 2c 3b 99 90 30 2f 30 0c 30 7f d0 68 ad
       2.1015542e-12 1.052093e-09 5.1000176e-10 -1.3233969e-11
000390 08 62 36 37 95 2d 84 aa 09 5f 1c ae b2 84 f0 32
       1.087087e-05 -2.347954e-13 -3.55547e-11 2.800002e-08
0003a0 fa bf db ac ce 7e c7 2f bb c4 06 b2 d2 54 04 29
       -6.245668e-12 3.628799e-10 -7.844558e-09 2.9383458e-14
0003b0 77 9e 83 ac be 49 a5 36 a5 7e e7 b3 a9 fd 42 ab
       -3.740837e-12 4.925968e-06 -1.0779812e-07 -6.927467e-13
0003c0 c0 9c 85 ad f6 ae 26 b1 3c 35 1b 29 6e 96 24 aa
       -1.518996e-11 -2.4255633e-09 3.4463087e-14 -1.4618317e-13
0003d0 3e 02 7c 32 f6 8d 85 a9 be 87 68 b6 5d b2 c2 a8
       1.466884e-08 -5.931013e-14 -3.4649706e-06 -2.161568e-14
0003e0 ff a3 19 b6 d9 3e 4a 2e 23 75 ea 2a 42 63 b6 af
       -2.2894235e-06 4.5985302e-11 4.164803e-13 -3.3176134e-10
0003f0 eb 04 39 34 b6 5f 4e 2b 0a 5e 7b 2f 8e f3 d4 2e
       1.7231257e-07 7.331873e-13 2.2861726e-10 9.683908e-11

input_proj.bias f4 [16]
000000 f3 73 b3 36 7c d1 21 b2 60 12 87 2d c0 e4 fd 2d
       5.348114e-06 -9.419065e-09 1.5355883e-11 2.8864355e-11
000010 fe 6b d8 2a 02 8b b7 a9 37 63 00 ad 96 b8 3a ab
       3.8444242e-13 -8.1509466e-14 -7.297988e-12 -6.633664e-13
000020 a9 95 ef aa 7d 53 56 ad be ee de 31 a7 8a bf 2e
       -4.2558776e-13 -1.218303e-11 6.488192e-09 8.710304e-11
000030 0e d9 0f b5 13 4f 01 2c 1a f6 bd ac 31 ea 7e 2b
       -5.358751e-07 1.8375898e-12 -5.399026e-12 9.0563933e-13

lstm.weight_ih_l0 f4 [64, 16]
000000 b2 92 44 b3 81 cc 37 35 17 48 97 b3 f9 6f ad 2f
       -4.5768225e-08 6.8470405e-07 -7.0445985e-08 3.1548078e-10
000010 3b a4 da ad 96 31 e9 31 4f b2 45 2b fc f7 a9 b0
       -2.4856664e-11 6.7868298e-09 7.023591e-13 -1.236685e-09
000020 c7 ec 8a b0 bb d1 ae b3 ed 80 ce b0 93 46 f3 32
       -1.0108118e-09 -8.140656e-08 -1.5025116e-09 2.8321017e-08
000030 57 4d 3e b1 03 22 64 b5 8d bb 45 2b b0 d9 5a b3
       -2.7692602e-09 -8.498611e-07 7.024874e-13 -5.0955066e-08
000040 5f 01 00 00 61 01 00 80 62 01 00 80 5f 01 00 80
       4.92e-43 -4.95e-43 -4.96e-43 -4.92e-43
000050 6b 01 00 80 61 01 00 00 64 01 00 00 5f 01 00 00
       -5.09e-43 4.95e-43 4.99e-43 4.92e-43
000060 62 01 00 00 63 01 00 00 60 01 00 00 61 01 00 80
       4.96e-43 4.97e-43 4.93e-43 -4.95e-43
000070 67 01 00 00 5f 01 00 00 63 01 00 80 60 01 00 00
       5.03e-43 4.92e-43 -4.97e-43 4.93e-43
000080 3c 90 41 af 2a e1 c4 29 36 1a 1f b1 01 13 35 30
       -1.760449e-10 8.743208e-14 -2.3152444e-09 6.587442e-10
000090 0a f1 34 ab ca c1 f0 a9 7f ff 23 ae 16 77 20 b5
       -6.4283355e-13 -1.0691758e-13 -3.7288835e-11 -5.977794e-07
0000a0 bb 6c f5 ad d8 c5 22 34 bd e9 2e 2f e1 64 c8 35
       -2.7901561e-11 1.5159401e-07 1.5908248e-10 1.4930521e-06
0000b0 6a 61 82 29 19 37 43 b6 5b 93 5c 2b 69 76 92 ab
       5.7900584e-14 -2.9089335e-06 7.83642e-13 -1.0406789e-12
0000c0 f9 16 42 31 87 54 11 31 a5 34 bf a8 80 80 75 ab
       2.8243774e-09 2.1148325e-09 -2.122809e-14 -8.7219815e-13
0000d0 45 6e 20 ab 89 00 90 32 d5 c0 af 2d 89 f3 40 a9
       -5.699645e-13 1.676405e-08 1.9980831e-11 -4.2843797e-14
0000e0 ba c4 1f b6 19 21 9c ab c8 0b 58 29 f1 0c 24 ac
       -2.3807356e-06 -1.1093653e-12 4.7971853e-14 -2.3312986e-12
0000f0 21 64 d1 b2 92 3a 2a ab 0a dd 35 30 db 9b bf ad
       -2.4376336e-08 -6.0477415e-13 6.616153e-10 -2.17834e-11
000100 62 7c 98 2e 71 1f 3f 31 70 c5 1e 37 bb d6 b6 2f
       6.9342546e-11 2.781203e-09 9.463503e-06 3.3258182e-10
000110 44 eb 73 2c 13 b6 80 34 dc bb 88 29 20 de d3 2e
       3.4662976e-12 2.3974334e-07 6.0722017e-14 9.6346264e-11
000120 8e f2 7c 34 2d b1 fe ab c0 e4 e9 37 24 79 4f b5
       2.355757e-07 -1.8096962e-12 2.7882284e-05 -7.728979e-07
000130 ae b5 fe a6 ff d0 4c 36 79 33 14 ab f2 17 97 a9
       -1.7674035e-15 3.052002e-06 -5.2651595e-13 -6.709901e-14
000140 5d 8b 96 ab 12 e2 e4 2a 78 8a 44 2e 6c fb f8 b5
       -1.0696822e-12 4.0657804e-13 4.4688225e-11 -1.8550613e-06
000150 99 53 3e ac ac 90 35 b4 3d 17 62 2d 5e 93 64 b4
       -2.704703e-12 -1.690957e-07 1.2851773e-11 -2.1287767e-07
000160 4f b3 02 b2 f3 16 c1 ab 9e c8 30 2e 89 98 9b b1
       -7.607766e-09 -1.3719844e-12 4.019595e-11 -4.528435e-09
000170 f7 fa 11 35 b4 7f 4d b0 82 4c ec aa 38 1c a1 ad
       5.438191e-07 -7.476004e-10 -4.197511e-13 -1.8316113e-11
000180 cd 37 5d a9 95 a3 af 31 6d 6e 0c 35 d9 c8 c7 33
       -4.9120257e-14 5.1117675e-09 5.2314755e-07 9.3031936e-08
000190 55 79 d1 2f fa cf a1 32 4c 6b bf b0 21 af 5c b4
       3.810309e-10 1.8837444e-08 -1.3927575e-09 -2.0552808e-07
0001a0 83 af b7 a9 e0 3e 70 ae 3b c6 32 a8 a9 9e c3 2f
       -8.157279e-14 -5.4625526e-11 -9.923969e-15 3.5583028e-10
0001b0 dd 8f f1 ae fd 20 6d b7 72 0e f7 32 77 fa 05 27
       -1.09849664e-10 -1.41339815e-05 2.8761153e-08 1.8593235e-15
0001c0 61 01 00 80 5f 01 00 80 5f 01 00 80 62 01 00 00
       -4.95e-43 -4.92e-43 -4.92e-43 4.96e-43
0001d0 5f 01 00 00 61 01 00 00 6a 01 00 80 65 01 00 80
       4.92e-43 4.95e-43 -5.07e-43 -5e-43
0001e0 61 01 00 00 61 01 00 80 62 01 00 00 62 01 00 80
       4.95e-43 -4.95e-43 4.96e-43 -4.96e-43
0001f0 61 01 00 80 5f 01 00 80 5f 01 00 80 60 01 00 00
       -4.95e-43 -4.92e-43 -4.92e-43 4.93e-43
000200 f6 e4 67 a8 8f 89 15 2e 37 a7 db 2b e9 c4 27 b0
       -1.2872724e-14 3.4000854e-11 1.5607297e-12 -6.103407e-10
000210 d0 47 a0 2a 91 30 51 ac b3 95 46 aa d7 b3 a6 ad
       2.847154e-13 -2.9727646e-12 -1.763787e-13 -1.895188e-11
000220 24 ea 17 a8 d8 9a 3d b7 b7 47 00 2e 79 4a 63 35
       -8.432955e-15 -1.130133e-05 2.9167526e-11 8.467246e-07
000230 7a b5 a4 2b f5 69 05 2b b3 f4 ec 2e 67 cf 98 2f
       1.1703271e-12 4.7398137e-13 1.0775505e-10 2.7796007e-10
000240 e6 fa a4 b6 f7 94 85 36 72 f8 6d 2f 62 f1 02 b4
       -4.9167893e-06 3.9810507e-06 2.164329e-10 -1.2195008e-07
000250 1d 12 5f b0 24 a0 c5 ae c0 b6 7b 37 b4 44 d3 a9
       -8.115267e-10 -8.9869695e-11 1.5003316e-05 -9.3822004e-14
000260 d9 28 3c 2c 8a be 5b 32 24 63 5e b3 65 7c 38 2e
       2.6739082e-12 1.2790801e-08 -5.177857e-08 4.194724e-11
000270 98 fa b5 b6 29 23 bb 32 98 f2 cd ae 38 9f 17 b8
       -5.4233933e-06 2.1785654e-08 -9.365414e-11 -3.614949e-05
000280 23 96 b1 b1 be 5e af 36 b9 38 a0 2f 63 3c 81 31
       -5.1684466e-09 5.226436e-06 2.9144134e-10 3.7612593e-09
000290 37 b5 60 b1 4f 58 bd 2a 64 4c 45 35 64 5d f4 29
       -3.2699299e-09 3.363442e-13 7.349938e-07 1.08519774e-13
0002a0 dd 8c 14 b0 af 65 b6 aa 4c 9c 0b 32 88 f1 d1 2a
       -5.4042265e-10 -3.2400252e-13 8.126403e-09 3.7293454e-13
0002b0 92 3b 31 28 ae d3 4e 28 1e ad 60 31 87 bf 67 32
       9.838391e-15 1.1481198e-14 3.2694696e-09 1.3489518e-08
0002c0 7f 1f 64 30 8f b8 a4 27 a3 1d 68 b4 34 69 c8 2e
       8.2990675e-10 4.5719243e-15 -2.1617466e-07 9.113635e-11
0002d0 35 3a 6a a9 60 25 1a aa ed 4a d0 2b be e8 3a b4
       -5.2008924e-14 -1.3690915e-13 1.4800085e-12 -1.7407271e-07
0002e0 7f 57 2e 37 86 82 cb ae a7 ce 1d ae 1a 94 27 2d
       1.039158e-05 -9.254557e-11 -3.588121e-11 9.525736e-12
0002f0 51 35 31 34 aa ea a6 2a c8 a5 00 34 92 92 d5 ae
       1.6503806e-07 2.9650354e-13 1.198124e-07 -9.712155e-11
000300 4d 6f ce 29 60 01 00 00 68 01 00 80 61 01 00 80
       9.167545e-14 4.93e-43 -5.04e-43 -4.95e-43
000310 62 01 00 00 61 01 00 80 60 01 00 80 61 01 00 80
       4.96e-43 -4.95e-43 -4.93e-43 -4.95e-43
000320 ac 01 00 00 5f 01 00 80 60 01 00 00 60 01 00 80
       6e-43 -4.92e-43 4.93e-43 -4.93e-43
000330 60 01 00 80 68 01 00 80 60 01 00 80 6c 01 00 00
       -4.93e-43 -5.04e-43 -4.93e-43 5.1e-43
000340 61 01 00 00 62 01 00 00 72 01 00 00 60 01 00 00
       4.95e-43 4.96e-43 5.18e-43 4.93e-43
000350 61 01 00 00 45 00 00 80 5f 01 00 00 60 01 00 00
       4.95e-43 -9.7e-44 4.92e-43 4.93e-43
000360 67 01 00 00 62 01 00 80 61 01 00 80 62 01 00 00
       5.03e-43 -4.96e-43 -4.95e-43 4.96e-43
000370 60 01 00 80 60 01 00 80 64 01 00 00 60 01 00 00
       -4.93e-43 -4.93e-43 4.99e-43 4.93e-43
000380 23 29 56 a9 c5 dc a0 30 6e ce c8 b1 28 74 3f ac
       -4.7553226e-14 1.1704279e-09 -5.8442344e-09 -2.7207212e-12
000390 6f 0a 9b 2c a8 f9 ef aa 0d 49 7a b0 55 56 ea b5
       4.4065233e-12 -4.2628162e-13 -9.105328e-10 -1.7459485e-06
0003a0 fd 17 8f 2c 3d 28 04 34 1e 3a d4 a8 6c c9 ab ad
       4.0669677e-12 1.2308097e-07 -2.3561932e-14 -1.9529899e-11
0003b0 bc 4d 90 2a e7 77 07 b1 0a 1d ea 29 b0 ec 23 33
       2.5633478e-13 -1.9713242e-09 1.0396725e-13 3.816666e-08
0003c0 5f 01 00 00 92 01 00 80 5f 01 00 00 5f 01 00 00
       4.92e-43 -5.63e-43 4.92e-43 4.92e-43
0003d0 60 01 00 00 62 01 00 00 5f 01 00 80 62 01 00 80
       4.93e-43 4.96e-43 -4.92e-43 -4.96e-43
0003e0 62 01 00 00 87 01 00 00 62 01 00 00 61 01 00 00
       4.96e-43 5.48e-43 4.96e-43 4.95e-43
0003f0 66 01 00 80 62 01 00 00 61 01 00 80 60 01 00 80
       -5.02e-43 4.96e-43 -4.95e-43 -4.93e-43

lstm.weight_hh_l0 f4 [64, 16]
000000 60 01 00 00 62 01 00 00 62 01 00 00 61 01 00 80
       4.93e-43 4.96e-43 4.96e-43 -4.95e-43
000010 61 01 00 80 63 01 00 80 60 01 00 00 63 01 00 00
       -4.95e-43 -4.97e-43 4.93e-43 4.97e-43
000020 64 01 00 80 60 01 00 00 5f 01 00 80 5f 01 00 80
       -4.99e-43 4.93e-43 -4.92e-43 -4.92e-43
000030 62 01 00 00 61 01 00 80 8a 01 00 80 62 01 00 00
       4.96e-43 -4.95e-43 -5.52e-43 4.96e-43
000040 5f 01 00 00 5f 01 00 80 5f 01 00 00 5f 01 00 80
       4.92e-43 -4.92e-43 4.92e-43 -4.92e-43
000050 5f 01 00 80 61 01 00 80 61 01 00 80 5f 01 00 80
       -4.92e-43 -4.95e-43 -4.95e-43 -4.92e-43
000060 62 01 00 00 61 01 00 00 5f 01 00 80 62 01 00 00
       4.96e-43 4.95e-43 -4.92e-43 4.96e-43
000070 7e 01 00 00 5f 01 00 00 60 01 00 00 5f 01 00 00
       5.35e-43 4.92e-43 4.93e-43 4.92e-43
000080 66 01 00 00 b7 01 00 00 5f 01 00 80 9e 01 00 00
       5.02e-43 6.15e-43 -4.92e-43 5.8e-43
000090 5f 01 00 80 61 01 00 80 61 01 00 00 61 01 00 80
       -4.92e-43 -4.95e-43 4.95e-43 -4.95e-43
0000a0 62 01 00 00 62 01 00 00 60 01 00 00 60 01 00 00
       4.96e-43 4.96e-43 4.93e-43 4.93e-43
0000b0 60 01 00 00 61 01 00 00 61 01 00 80 60 01 00 80
       4.93e-43 4.95e-43 -4.95e-43 -4.93e-43
0000c0 62 01 00 00 62 01 00 80 62 01 00 80 5f 01 00 80
       4.96e-43 -4.96e-43 -4.96e-43 -4.92e-43
0000d0 5f 01 00 00 a3 01 00 00 61 01 00 00 99 01 00 00
       4.92e-43 5.87e-43 4.95e-43 5.73e-43
0000e0 60 01 00 80 61 01 00 00 61 01 00 80 62 01 00 80
       -4.93e-43 4.95e-43 -4.95e-43 -4.96e-43
0000f0 61 01 00 00 61 01 00 80 61 01 00 00 61 01 00 80
       4.95e-43 -4.95e-43 4.95e-43 -4.95e-43
000100 5f 01 00 80 5f 01 00 00 60 01 00 00 60 01 00 00
       -4.92e-43 4.92e-43 4.93e-43 4.93e-43
000110 62 01 00 80 64 01 00 00 5f 01 00 00 62 01 00 80
       -4.96e-43 4.99e-43 4.92e-43 -4.96e-43
000120 62 01 00 80 62 01 00 80 62 01 00 80 60 01 00 00
       -4.96e-43 -4.96e-43 -4.96e-43 4.93e-43
000130 77 01 00 80 60 01 00 00 61 01 00 80 62 01 00 80
       -5.25e-43 4.93e-43 -4.95e-43 -4.96e-43
000140 5f 01 00 80 5f 01 00 80 62 01 00 00 63 01 00 00
       -4.92e-43 -4.92e-43 4.96e-43 4.97e-43
000150 60 01 00 00 5f 01 00 80 61 01 00 00 62 01 00 00
       4.93e-43 -4.92e-43 4.95e-43 4.96e-43
000160 62 01 00 80 61 01 00 00 5f 01 00 00 62 01 00 00
       -4.96e-43 4.95e-43 4.92e-43 4.96e-43
000170 60 01 00 80 61 01 00 80 60 01 00 00 65 01 00 80
       -4.93e-43 -4.95e-43 4.93e-43 -5e-43
000180 5f 01 00 80 a5 01 00 80 61 01 00 00 61 01 00 00
       -4.92e-43 -5.9e-43 4.95e-43 4.95e-43
000190 5f 01 00 00 72 01 00 80 66 01 00 00 60 01 00 00
       4.92e-43 -5.18e-43 5.02e-43 4.93e-43
0001a0 61 01 00 00 ba 01 00 00 61 01 00 00 6a 01 00 80
       4.95e-43 6.2e-43 4.95e-43 -5.07e-43
0001b0 5f 01 00 00 60 01 00 00 5f 01 00 80 66 01 00 80
       4.92e-43 4.93e-43 -4.92e-43 -5.02e-43
0001c0 60 01 00 00 60 01 00 00 60 01 00 80 60 01 00 00
       4.93e-43 4.93e-43 -4.93e-43 4.93e-43
0001d0 a3 01 00 80 5f 01 00 00 61 01 00 00 9d 01 00 00
       -5.87e-43 4.92e-43 4.95e-43 5.79e-43
0001e0 60 01 00 80 60 01 00 00 ab 01 00 80 62 01 00 00
       -4.93e-43 4.93e-43 -5.98e-43 4.96e-43
0001f0 60 01 00 00 60 01 00 80 61 01 00 00 61 01 00 00
       4.93e-43 -4.93e-43 4.95e-43 4.95e-43
000200 62 01 00 80 60 01 00 80 60 01 00 80 64 01 00 00
       -4.96e-43 -4.93e-43 -4.93e-43 4.99e-43
000210 5f 01 00 00 61 01 00 00 69 01 00 00 9c 01 00 00
       4.92e-43 4.95e-43 5.06e-43 5.77e-43
000220 60 01 00 00 60 01 00 00 60 01 00 80 8b 01 00 80
       4.93e-43 4.93e-43 -4.93e-43 -5.54e-43
000230 6c 01 00 80 5f 01 00 00 5f 01 00 00 60 01 00 80
       -5.1e-43 4.92e-43 4.92e-43 -4.93e-43
000240 61 01 00 80 5f 01 00 00 9b 01 00 80 60 01 00 80
       -4.95e-43 4.92e-43 -5.76e-43 -4.93e-43
000250 60 01 00 00 83 01 00 80 60 01 00 80 5f 01 00 00
       4.93e-43 -5.42e-43 -4.93e-43 4.92e-43
000260 61 01 00 00 60 01 00 80 60 01 00 80 62 01 00 80
       4.95e-43 -4.93e-43 -4.93e-43 -4.96e-43
000270 5f 01 00 80 62 01 00 00 60 01 00 00 5f 01 00 80
       -4.92e-43 4.96e-43 4.93e-43 -4.92e-43
000280 5f 01 00 00 63 01 00 00 60 01 00 80 5f 01 00 80
       4.92e-43 4.97e-43 -4.93e-43 -4.92e-43
000290 62 01 00 00 63 01 00 00 60 01 00 80 62 01 00 00
       4.96e-43 4.97e-43 -4.93e-43 4.96e-43
0002a0 60 01 00 80 62 01 00 00 61 01 00 00 61 01 00 80
       -4.93e-43 4.96e-43 4.95e-43 -4.95e-43
0002b0 5f 01 00 80 61 01 00 00 62 01 00 00 5f 01 00 00
       -4.92e-43 4.95e-43 4.96e-43 4.92e-43
0002c0 5f 01 00 80 61 01 00 80 62 01 00 00 60 01 00 80
       -4.92e-43 -4.95e-43 4.96e-43 -4.93e-43
0002d0 61 01 00 80 60 01 00 80 62 01 00 80 60 01 00 00
       -4.95e-43 -4.93e-43 -4.96e-43 4.93e-43
0002e0 61 01 00 80 5f 01 00 00 61 01 00 80 62 01 00 80
       -4.95e-43 4.92e-43 -4.95e-43 -4.96e-43
0002f0 5f 01 00 00 5f 01 00 80 5f 01 00 80 5f 01 00 80
       4.92e-43 -4.92e-43 -4.92e-43 -4.92e-43
000300 61 01 00 80 61 01 00 00 60 01 00 00 65 01 00 00
       -4.95e-43 4.95e-43 4.93e-43 5e-43
000310 71 01 00 00 61 01 00 00 63 01 00 00 5f 01 00 80
       5.17e-43 4.95e-43 4.97e-43 -4.92e-43
000320 61 01 00 00 66 01 00 00 60 01 00 80 60 01 00 00
       4.95e-43 5.02e-43 -4.93e-43 4.93e-43
000330 ac 01 00 00 62 01 00 80 62 01 00 00 5f 01 00 80
       6e-43 -4.96e-43 4.96e-43 -4.92e-43
000340 61 01 00 00 61 01 00 00 73 01 00 00 61 01 00 80
       4.95e-43 4.95e-43 5.2e-43 -4.95e-43
000350 62 01 00 80 62 01 00 80 61 01 00 00 7a 01 00 80
       -4.96e-43 -4.96e-43 4.95e-43 -5.3e-43
000360 61 01 00 00 62 01 00 80 5f 01 00 00 78 01 00 80
       4.95e-43 -4.96e-43 4.92e-43 -5.27e-43
000370 5f 01 00 00 60 01 00 80 62 01 00 80 60 01 00 80
       4.92e-43 -4.93e-43 -4.96e-43 -4.93e-43
000380 61 01 00 00 60 01 00 00 61 01 00 80 63 01 00 00
       4.95e-43 4.93e-43 -4.95e-43 4.97e-43
000390 62 01 00 00 60 01 00 80 60 01 00 00 5f 01 00 00
       4.96e-43 -4.93e-43 4.93e-43 4.92e-43
0003a0 61 01 00 00 60 01 00 80 60 01 00 00 60 01 00 00
       4.95e-43 -4.93e-43 4.93e-43 4.93e-43
0003b0 5f 01 00 00 62 01 00 00 5f 01 00 80 5f 01 00 00
       4.92e-43 4.96e-43 -4.92e-43 4.92e-43
0003c0 66 01 00 80 5f 01 00 00 62 01 00 00 62 01 00 00
       -5.02e-43 4.92e-43 4.96e-43 4.96e-43
0003d0 5f 01 00 80 62 01 00 00 61 01 00 00 62 01 00 80
       -4.92e-43 4.96e-43 4.95e-43 -4.96e-43
0003e0 61 01 00 00 62 01 00 00 c1 01 00 80 5f 01 00 80
       4.95e-43 4.96e-43 -6.29e-43 -4.92e-43
0003f0 60 01 00 00 64 01 00 80 5f 01 00 80 61 01 00 00
       4.93e-43 -4.99e-43 -4.92e-43 4.95e-43

lstm.bias_ih_l0 f4 [64]
000000 d2 b8 8d 33 60 01 00 80 9e a2 60 af 91 7f f5 33
       6.599443e-08 -4.93e-43 -2.0430455e-10 1.1431906e-07
000010 51 52 2b b2 89 33 eb 29 52 5e 40 b3 5f 01 00 80
       -9.972227e-09 1.04450364e-13 -4.4789267e-08 -4.92e-43
000020 9b 08 11 a9 b8 0f 61 2e 3a 06 01 2e 00 9f 81 aa
       -3.2203932e-14 5.1173038e-11 2.9336734e-11 -2.3025332e-13
000030 62 01 00 80 8e 01 00 00 5e 30 08 2a 62 01 00 80
       -4.96e-43 5.58e-43 1.2096007e-13 -4.96e-43
000040 60 01 00 80 5f 01 00 80 63 01 00 80 95 01 00 80
       -4.93e-43 -4.92e-43 -4.97e-43 -5.68e-43
000050 61 01 00 00 60 01 00 00 62 01 00 80 61 01 00 00
       4.95e-43 4.93e-43 -4.96e-43 4.95e-43
000060 62 01 00 00 5f 01 00 80 67 01 00 00 5f 01 00 00
       4.96e-43 -4.92e-43 5.03e-43 4.92e-43
000070 60 01 00 80 60 01 00 80 65 01 00 00 60 01 00 00
       -4.93e-43 -4.93e-43 5e-43 4.93e-43
000080 28 94 a7 b3 71 01 00 80 a5 15 27 b5 7a cd 39 b2
       -7.803493e-08 -5.17e-43 -6.2243845e-07 -1.0815137e-08
000090 6a ac 4e 37 27 f0 f4 34 03 0f f4 2f a1 01 00 80
       1.23187e-05 4.5623275e-07 4.4394008e-10 -5.84e-43
0000a0 1c 2b d0 2a 15 fc a2 ad 26 ee e7 b7 5c 87 6f aa
       3.6978135e-13 -1.8529215e-11 -2.7648242e-05 -2.1274426e-13
0000b0 a5 01 00 80 6c 01 00 00 e4 17 43 a8 61 01 00 80
       -5.9e-43 5.1e-43 -1.0829855e-14 -4.95e-43
0000c0 8d 82 3c 2a 94 01 00 80 30 e6 38 30 82 81 71 ad
       1.6743048e-13 -5.66e-43 6.7265926e-10 -1.37280205e-11
0000d0 41 94 94 b3 1e fb bc ae 22 e6 35 b2 6d 01 00 00
       -6.918754e-08 -8.5938576e-11 -1.0587913e-08 5.11e-43
0000e0 51 68 a5 30 50 8e 92 2f a1 5f 38 b3 2b 60 7b 29
       1.2034979e-09 2.6658364e-10 -4.2927812e-08 5.5816608e-14
0000f0 61 01 00 00 66 01 00 00 51 1d a9 37 60 01 00 00
       4.95e-43 5.02e-43 2.0160021e-05 4.93e-43

lstm.bias_hh_l0 f4 [64]
000000 98 ad 13 2c 63 01 00 80 a1 f7 db b3 f3 55 05 32
       2.098632e-12 -4.97e-43 -1.02430256e-07 7.7611615e-09
000010 d9 dc 22 31 e2 c8 49 b6 fb f9 7d ac 61 01 00 00
       2.369964e-09 -3.0068263e-06 -3.609223e-12 4.95e-43
000020 2b de 49 34 48 f8 a1 29 e5 c5 77 2c 84 34 6e b3
       1.8800408e-07 7.192906e-14 3.5210665e-12 -5.5461456e-08
000030 84 01 00 80 60 01 00 00 ef db 52 35 60 01 00 80
       -5.44e-43 4.93e-43 7.855114e-07 -4.93e-43
000040 5f 01 00 80 5f 01 00 80 60 01 00 80 60 01 00 00
       -4.92e-43 -4.92e-43 -4.93e-43 4.93e-43
000050 62 01 00 00 5f 01 00 80 60 01 00 00 5f 01 00 00
       4.96e-43 -4.92e-43 4.93e-43 4.92e-43
000060 5f 01 00 00 62 01 00 00 62 01 00 80 8a 01 00 00
       4.92e-43 4.96e-43 -4.96e-43 5.52e-43
000070 60 01 00 00 60 01 00 00 60 01 00 00 61 01 00 80
       4.93e-43 4.93e-43 4.93e-43 -4.95e-43
000080 68 c7 72 31 92 01 00 80 96 dc 7b b2 a5 a8 51 28
       3.5328984e-09 -5.63e-43 -1.4660278e-08 1.16383996e-14
000090 b1 01 be ad 0a 3e 9d 2b eb b4 2a b1 65 01 00 80
       -2.160125e-11 1.117274e-12 -2.4841096e-09 -5e-43
0000a0 9e fd 7c 2a 59 8d 85 b6 d8 cf 4e 30 bd 53 02 b4
       2.2470087e-13 -3.980164e-06 7.5237727e-10 -1.2137657e-07
0000b0 63 01 00 80 6a 01 00 80 90 2a fd 28 83 01 00 80
       -4.97e-43 -5.07e-43 2.8107101e-14 -5.42e-43
0000c0 e5 26 bd 29 5f 01 00 80 82 ba ba ad e4 ff 05 b4
       8.400033e-14 -4.92e-43 -2.1228578e-11 -1.2479683e-07
0000d0 d7 5a 26 28 9c f1 2d b1 f6 f9 bc ad 67 01 00 00
       9.234549e-15 -2.5312152e-09 -2.148413e-11 5.03e-43
0000e0 82 39 6a b0 d7 70 78 aa 90 da 15 a9 8b d8 17 2e
       -8.521043e-10 -2.2065974e-13 -3.327422e-14 3.4525754e-11
0000f0 97 01 00 80 5f 01 00 80 60 e8 3a 34 61 01 00 80
       -5.7e-43 -4.92e-43 1.7407137e-07 -4.95e-43

output_layer.weight f4 [50, 16]
000000 44 db e4 b2 62 01 00 00 ba 47 22 2b 3e e8 91 b0
       -2.6642404e-08 4.96e-43 5.76535e-13 -1.0616146e-09
000010 72 99 35 b4 6b 9b 81 29 06 0c e7 ac 64 01 00 00
       -1.6912762e-07 5.7557115e-14 -6.5667497e-12 4.99e-43
000020 f5 9b 63 ad 64 46 82 36 09 6e 6b a8 45 28 95 ad
       -1.29380855e-11 3.8824965e-06 -1.3068981e-14 -1.6957222e-11
000030 69 01 00 00 5f 01 00 80 00 38 38 b1 64 01 00 00
       5.06e-43 -4.92e-43 -2.6807356e-09 4.99e-43
000040 86 38 a9 37 5f 01 00 00 1a 6b 0c b4 37 9e 22 b5
       2.017269e-05 4.92e-43 -1.307748e-07 -6.0579936e-07
000050 cf 31 88 b1 19 15 13 38 f9 ae 1a ab 60 01 00 80
       -3.9637835e-09 3.506718e-05 -5.4954614e-13 -4.93e-43
000060 82 2d 51 ae a2 0d cd 29 8f 48 f7 a9 a4 ec 9f b4
       -4.7561517e-11 9.106194e-14 -1.09815904e-13 -2.9788237e-07
000070 62 01 00 80 63 01 00 80 d6 13 9a 34 82 01 00 00
       -4.96e-43 -4.97e-43 2.8699168e-07 5.41e-43
000080 d1 b7 e0 ae 60 01 00 80 57 42 75 34 e5 4f a1 31
       -1.0218993e-10 -4.93e-43 2.2841537e-07 4.6947997e-09
000090 79 22 36 30 9c dc 50 30 01 d4 29 aa 61 01 00 00
       6.6260203e-10 7.5983464e-10 -1.5083769e-13 4.95e-43
0000a0 70 07 bb 2a 78 5c cd b5 76 7a 3b 2a 5e fa f5 aa
       3.3223034e-13 -1.5300602e-06 1.6651424e-13 -4.369447e-13
0000b0 a4 01 00 80 61 01 00 80 f7 e8 00 2c 5f 01 00 80
       -5.89e-43 -4.95e-43 1.8319216e-12 -4.92e-43
0000c0 92 3d a7 a9 70 01 00 80 21 dc 07 af d1 9b 7c b5
       -7.4269706e-14 -5.16e-43 -1.2356384e-10 -9.410406e-07
0000d0 83 9b f4 2a e8 65 09 ad 22 08 f9 ae 61 01 00 00
       4.3451015e-13 -7.810176e-12 -1.1324654e-10 4.95e-43
0000e0 19 6c 94 2a 00 e8 ed 2d b4 b5 8e 2e a5 be ba af
       2.636509e-13 2.704681e-11 6.489689e-11 -3.3968664e-10
0000f0 67 01 00 00 63 01 00 80 5e 9c 92 ab 66 01 00 80
       5.03e-43 -4.97e-43 -1.0417325e-12 -5.02e-43
000100 af 6d 51 34 62 01 00 80 c8 86 c6 2e b1 10 e4 32
       1.9504544e-07 -4.96e-43 9.0279395e-11 2.6550284e-08
000110 c0 e2 98 ac 76 43 26 29 64 04 9a 29 60 01 00 00
       -4.345274e-12 3.6917917e-14 6.8397355e-14 4.93e-43
000120 96 0f 72 2e df 21 2d b1 33 d3 a3 b4 94 f9 80 29
       5.5038273e-11 -2.5194067e-09 -3.0514784e-07 5.727637e-14
000130 b4 01 00 00 68 01 00 00 1c 9b b4 2e 60 01 00 80
       6.11e-43 5.04e-43 8.213005e-11 -4.93e-43
000140 f5 81 06 af 62 01 00 00 8a 58 7b ab d4 77 90 aa
       -1.2233399e-10 4.96e-43 -8.9295986e-13 -2.5662686e-13
000150 37 4f 5d 37 6a 42 5f af 67 58 0a b1 62 01 00 00
       1.319107e-05 -2.0305327e-10 -2.0131894e-09 4.96e-43
000160 43 79 9e 28 79 d5 c4 a8 d7 94 9d 30 fb 4e 07 aa
       1.7594113e-14 -2.185295e-14 1.1465556e-09 -1.201781e-13
000170 65 01 00 00 63 01 00 00 ac ec 86 ab 61 01 00 00
       5e-43 4.97e-43 -9.586962e-13 4.95e-43
000180 78 fd 1b aa 60 01 00 80 18 61 c0 b6 b0 23 8b b2
       -1.3854705e-13 -4.93e-43 -5.733349e-06 -1.6197959e-08
000190 4a 4a a0 ab 41 eb de 2c 06 69 38 b6 62 01 00 00
       -1.1389303e-12 6.335738e-12 -2.7479268e-06 4.96e-43
0001a0 c8 71 f4 aa 21 a2 d9 2a b0 22 15 ab f7 9b 73 af
       -4.3422058e-13 3.8659443e-13 -5.298357e-13 -2.2156131e-10
0001b0 70 01 00 00 6a 01 00 00 85 fd bc a9 63 01 00 80
       5.16e-43 5.07e-43 -8.392856e-14 -4.97e-43
0001c0 76 f0 0d 32 60 01 00 80 b4 a4 63 b2 c7 79 25 30
       8.261955e-09 -4.93e-43 -1.3250588e-08 6.0199706e-10
0001d0 aa 76 75 29 ba ed f4 b4 f2 f9 ea b1 62 01 00 00
       5.4503853e-14 -4.562151e-07 -6.838712e-09 4.96e-43
0001e0 34 6a b6 b0 e3 c6 20 b1 fe 70 80 2a ee c2 0b a9
       -1.3272428e-09 -2.3396118e-09 2.2815772e-13 -3.1033275e-14
0001f0 64 01 00 00 61 01 00 00 df 7f 14 30 60 01 00 00
       4.99e-43 4.95e-43 5.40238e-10 4.93e-43
000200 20 eb 4b 28 62 01 00 00 65 54 e9 32 fa ee 03 b7
       1.1319748e-14 4.96e-43 2.7163148e-08 -7.8638495e-06
000210 79 b8 00 2d f7 15 04 2e 72 02 86 aa 62 01 00 80
       7.316919e-12 3.0032834e-11 -2.3804878e-13 -4.96e-43
000220 80 e6 08 34 cf c9 30 2d c8 48 76 31 ac 9a d4 35
       1.2749842e-07 1.0049252e-11 3.5839083e-09 1.5840246e-06
000230 63 01 00 00 61 01 00 00 92 34 8b b6 61 01 00 80
       4.97e-43 4.95e-43 -4.148643e-06 -4.95e-43
000240 1e a8 2e ae 5f 01 00 80 b8 21 d9 36 58 59 5f 2d
       -3.9712338e-11 -4.92e-43 6.4710293e-06 1.2695921e-11
000250 c8 75 b2 36 02 53 06 b4 76 0f 7e 2c 5f 01 00 00
       5.318525e-06 -1.250992e-07 3.6104154e-12 4.92e-43
000260 a8 03 97 ad 22 cf 32 2f f8 63 03 34 94 ae 9e af
       -1.7168336e-11 1.6262594e-10 1.2236694e-07 -2.8864078e-10
000270 65 01 00 00 61 01 00 80 e3 93 a1 b6 ad 01 00 00
       5e-43 -4.95e-43 -4.81539e-06 6.01e-43
000280 14 02 31 28 6a 01 00 80 79 67 b8 ae f2 d9 c7 aa
       9.825924e-15 -5.07e-43 -8.385732e-11 -3.550073e-13
000290 a2 51 52 a9 f5 5b 93 b4 3a 6b 8a 2b 64 01 00 80
       -4.6700172e-14 -2.744779e-07 9.835251e-13 -4.99e-43
0002a0 2b 3d 1e b4 46 ab ed a7 9e 2a b8 ac 31 f7 01 2b
       -1.473715e-07 -6.596641e-15 -5.234326e-12 4.6173053e-13
0002b0 5f 01 00 00 61 01 00 00 bf d9 35 ab 5f 01 00 00
       4.92e-43 4.95e-43 -6.46063e-13 4.92e-43
0002c0 26 5d bc af 63 01 00 80 24 a2 1a b8 3a 58 56 ae
       -3.4263187e-10 -4.97e-43 -3.6867466e-05 -4.8736327e-11
0002d0 d7 cd 3c 35 25 a2 fb a9 4b d9 44 28 61 01 00 00
       7.0334994e-07 -1.1174767e-13 1.09273035e-14 4.95e-43
0002e0 c1 75 4b 33 a1 9f 44 31 2b d1 f4 30 59 e0 b2 ab
       4.7371717e-08 2.8612492e-09 1.7812786e-09 -1.270993e-12
0002f0 61 01 00 00 6b 01 00 00 49 49 9b 2e 5f 01 00 00
       4.95e-43 5.09e-43 7.061602e-11 4.92e-43
000300 ca 27 c1 29 62 01 00 80 29 9e dd 34 09 a8 06 b4
       8.577824e-14 -4.96e-43 4.1279534e-07 -1.2540853e-07
000310 33 5c 90 2d 59 ba 4c b4 5f 10 e3 2f 60 01 00 80
       1.641185e-11 -1.9066773e-07 4.1302692e-10 -4.93e-43
000320 70 98 7c 2d fd 42 2d 2b f7 d7 6a b1 41 3c 8d 31
       1.43583895e-11 6.155491e-13 -3.4174243e-09 4.11049e-09
000330 61 01 00 00 82 01 00 00 eb 39 01 b4 60 01 00 00
       4.95e-43 5.41e-43 -1.2035132e-07 4.93e-43
000340 27 09 89 29 5f 01 00 80 0d 31 3c af d3 57 a1 2c
       6.08561e-14 -4.92e-43 -1.7115927e-10 4.5856457e-12
000350 97 ba ac ad fb 75 55 aa 20 83 39 37 60 01 00 00
       -1.9636999e-11 -1.8959133e-13 1.1057389e-05 4.93e-43
000360 eb 17 66 29 44 25 b0 aa 95 72 ab 2e 96 6f 84 2d
       5.1091005e-14 -3.1289739e-13 7.7965336e-11 1.5056217e-11
000370 ad 01 00 80 62 01 00 80 97 76 fa b0 5f 01 00 00
       -6.01e-43 -4.96e-43 -1.8223599e-09 4.92e-43
000380 02 19 61 36 70 01 00 80 bd 8d 48 2b 15 be 23 32
       3.354217e-06 -5.16e-43 7.1250975e-13 9.531068e-09
000390 f4 fd 66 ab b2 06 c1 ae 7d be 21 2f c2 01 00 00
       -8.2064845e-13 -8.777813e-11 1.471054e-10 6.3e-43
0003a0 36 8f 40 b4 fd 0f dd a9 9c 95 39 2d 10 3f 95 2f
       -1.7933493e-07 -9.817145e-14 1.05492524e-11 2.714775e-10
0003b0 64 01 00 00 60 01 00 00 e0 42 08 29 5f 01 00 00
       4.99e-43 4.93e-43 3.025607e-14 4.92e-43
0003c0 be 0b c6 2b 5f 01 00 80 dd 44 0e b7 21 9e ad 2c
       1.4072005e-12 -4.92e-43 -8.479893e-06 4.9345116e-12
0003d0 27 8f 12 31 b5 65 18 35 fb d0 a2 2b 66 01 00 80
       2.132717e-09 5.6772416e-07 1.1568796e-12 -5.02e-43
0003e0 9a 0b 4a aa 62 66 af 2f 47 16 2b b6 d6 84 51 2b
       -1.7945229e-13 3.1905062e-10 -2.5493953e-06 7.4436063e-13
0003f0 7f 01 00 00 63 01 00 00 7a 28 54 b3 61 01 00 00
       5.37e-43 4.97e-43 -4.939691e-08 4.95e-43

output_layer.bias f4 [50]
000000 d4 c8 2b 33 75 15 41 b1 1f 43 11 30 9d 0c eb b3
       3.9996692e-08 -2.8097393e-09 5.284608e-10 -1.09453346e-07
000010 c4 de f9 b6 6f 60 26 32 94 e4 17 b5 e3 e5 bf 2f
       -7.4467116e-06 9.684398e-09 -5.658451e-07 3.4906042e-10
000020 62 b7 83 30 cb 36 a7 2f 28 59 8a 2e 80 10 d4 b2
       9.583625e-10 3.0416056e-10 6.291351e-11 -2.4687552e-08
000030 9b 47 c9 b2 10 aa 54 2e d5 d2 1a 33 34 0f 9c b3
       -2.3432042e-08 4.8354265e-11 3.604767e-08 -7.2670815e-08
000040 1b 0f b0 ae 20 09 b8 31 c8 ce da ae 68 af 02 32
       -8.0062366e-11 5.356142e-09 -9.950224e-11 7.606879e-09
000050 c1 31 cc b0 fd e1 ec 2f 88 41 04 34 6f 1a b6 35
       -1.4857094e-09 4.3088724e-10 1.2317298e-07 1.356775e-06
000060 75 f0 ea 2e 70 90 d5 2f 48 95 77 ae cf 1b 3d b2
       1.0683802e-10 3.8847103e-10 -5.6293886e-11 -1.1007571e-08
000070 d2 74 ff 37 39 35 9c af 43 63 cd b2 53 e7 c4 ad
       3.0452768e-05 -2.8414052e-10 -2.391028e-08 -2.2385349e-11
000080 57 59 10 33 bf 75 c5 ae 4e bc c3 33 dc 5e ab 2e
       3.3608867e-08 -8.979439e-11 9.1146475e-08 7.79303e-11
000090 5c b5 54 32 27 5e ff ac a2 6d f2 35 6a 02 12 2e
       1.23812605e-08 -7.257989e-12 1.8062312e-06 3.31987e-11
0000a0 1e b1 84 32 c9 da e1 ac ee 81 99 2e bd 1f b2 b7
       1.5447366e-08 -6.4191747e-12 6.9807146e-11 -2.1234033e-05
0000b0 2b 55 82 2f 85 11 d5 b2 ad b9 8c b7 7c a4 78 33
       2.3707378e-10 -2.480443e-08 -1.6775763e-05 5.7891597e-08
0000c0 91 b5 c1 35 0b 5a e6 37
       1.4432463e-06 2.7460066e-05
